models/corrupt_mnist_checkpoint.pth (torch, 119756 bytes, 8 tensors)

conv1.weight f4 [16, 1, 3, 3]
00000000: a204 4b3d 31d2 a43e 7c23 60be 902f 8abe
00000010: 9599 d2be 17c6 523e 2b57 493e ccf8 6c3e
00000020: 8872 c6bd 90bb 593e 2ce3 373e 9aa1 173e
00000030: 51fc e5be be8e e2be d558 a0be 07f4 853e
00000040: 4b41 5c3e ac07 463e f846 19be 9f31 01be
00000050: 9103 b03d 8c3f b83e db1d 30be 3d64 3e3e
00000060: a2bb acbe 7684 afbd ff3a 5a3e 17bf 3ebe
00000070: d0a8 2abe 846a cbbd dfc3 01bd 1f3c aa3e
00000080: be39 2fbe 1686 a0bd cf90 34be cca0 30be
00000090: 3b29 61be 0466 813e 509f 7d3e f371 353e
000000a0: 020c a53c 26a9 bdbb 6a30 d3bd 5eaa eebe
000000b0: 9a84 36be d298 8cbe a097 243e 3659 2f3e
000000c0: ef1c 3cbe 8aa5 a5bb d99a ec3d 2472 283e
000000d0: 469c 183d 3c41 4dbd 0e90 be3e 0d1b e3be
000000e0: ffd3 683e 1aa4 14bf 2d26 8b3e bb97 13bd
000000f0: 1960 823e 1ed2 0d3d f1ce 6dbe 1896 593d
00000100: 3bdd d23d 1b8a 0bbe 58e8 323c 789d 89bd
00000110: 2b80 2f3c 1083 b73e b943 bdbe 11b1 aa3d
00000120: 7141 863c 5981 613e 4aca 453e fb8d 153e
00000130: a218 643c 68d2 01be 54ca c9bd 442c 8ebe
00000140: 9e59 b2be 13fa 773e dc3f 6b3e 4327 ccbe
00000150: 1ecd 183d 9de4 3b3c e370 963d 89a5 60be
00000160: 3338 8a3e dbc7 36be 5e97 58bd 6479 673e
00000170: bda9 a53e b49f 88bd b676 37bf d7e1 44be
00000180: 8d5d 753d c381 993e 3c4b 02be cfe3 903b
00000190: 1eac cf3e d773 b43e 1b4b 97be e222 f6be
000001a0: afd1 91be f71a 113e 2481 93bd e86d 6ebe
000001b0: 5c03 a3bd 85f8 8a3e 503a d3be 66dd 323e
000001c0: bdec f7be e438 d73e 0b1a 753e 59f9 0abe
000001d0: abc7 44be 172e 573d fba8 613d 47c4 b03d
000001e0: 1212 073e fe83 09bd 04c2 82bd 4d14 4f3d
000001f0: 8515 f1be 81d5 bbbe 9751 43bb 44d2 45be
00000200: 2b09 59bd e162 4bbe f965 c4bd 0229 c23d
00000210: 208d 61be 7408 e93c be76 6d3e 68a0 03be
00000220: d1af d0bd 0019 11be 073e cfbc 9563 353e
00000230: c705 333e f9dc c43c 50a9 733e 14df cbbc
0.049564965 0.32191613 -0.21888536 -0.26989412 -0.411328 0.20583378 0.19662158 0.23141783
-0.09689814 0.21262956 0.17957753 0.1480774 -0.44919065 -0.4424953 -0.31317773 0.2616274
0.21509282 0.19338864 -0.14968479 -0.12616585 0.0859443 0.35985982 -0.17198889 0.18592925
-0.33736902 -0.08570187 0.21311568 -0.18627582 -0.1666596 -0.099324256 -0.031680938 0.33248994
-0.1711187 -0.07838075 -0.17633365 -0.17248839 -0.21988384 0.25273144 0.24767804 0.1771925
0.020147327 -0.0057879863 -0.103119686 -0.46614355 -0.17824021 -0.27460343 0.16073465 0.17123875
-0.18370412 -0.005055134 0.11552972 0.16449791 0.03725841 -0.05011104 0.3721928 -0.44356576
0.2273712 -0.580629 0.27177563 -0.036033373 0.25463942 0.03462421 -0.23223473 0.053121656
0.102961026 -0.13626902 0.010919653 -0.06719488 0.01071171 0.3584218 -0.3696573 0.08334554
0.016388627 0.22021998 0.19315448 0.14604943 0.013921889 -0.1267792 -0.09853044 -0.27768147
-0.34833997 0.2421649 0.22973579 -0.39873704 0.03730499 0.01146808 0.0734575 -0.21938147
0.26996002 -0.17849676 -0.05287873 0.226049 0.32356063 -0.06671086 -0.71665514 -0.19226776
0.05990367 0.29981813 -0.12724012 0.004421688 0.40561002 0.3524463 -0.29549488 -0.48073488
-0.28480288 0.14170443 -0.07202366 -0.23284113 -0.07959625 0.2714273 -0.41255426 0.1746727
-0.48422804 0.42035592 0.23935716 -0.13571681 -0.19216792 0.05253419 0.055092793 0.08631187
0.13190487 -0.033573143 -0.06384662 0.05055647 -0.4708673 -0.36686328 -0.002980327 -0.19318491
-0.05298726 -0.19861938 -0.09589762 0.09480478 -0.22026491 0.028446414 0.23189828 -0.12854159
-0.10189784 -0.14169693 -0.025298132 0.17713769 0.17482673 0.02403115 0.23795056 -0.024886645

conv1.bias f4 [16]
00000000: 5fbc 86be 9da5 3bbe 1463 c5bc 076a fbbd
00000010: ae9c 09be a410 c7be 2b83 d9be 4ff5 9ebe
00000020: 6867 0ebe c128 09bc 6a07 46bd 7404 bfbe
00000030: 2814 4ebd 2202 78be 0f0e 36be 86db 49be
-0.2631559 -0.18324895 -0.024095096 -0.122760825 -0.13438675 -0.38879883 -0.42482886 -0.3104653
-0.13906634 -0.008371533 -0.048346914 -0.37308085 -0.05031219 -0.24219564 -0.177788 -0.19712648

conv2.weight f4 [32, 16, 3, 3]
00000000: d32a 4bbe 9137 80bd 58c1 6fbe 509b 4dbe
00000010: 6ee0 a6bd deef 5fbe 868e 76be fd96 e3bd
00000020: cfdf b2bd 95d1 81bd 2026 773d dfc8 1cbe
00000030: 61f8 a3bd 2aaf 4abe 7aef abbe c909 e1bd
00000040: e150 73be 8021 2abc 3c42 a93d 9ee5 78bd
00000050: 22ce 133d d98f 80bb cbcc bf3d e355 96bd
00000060: 2745 873d 3bf4 683d 8751 25be 6707 9b3d
00000070: f6cc a23d 704f 133d 2893 be3d 9fae 18bd
00000080: 9c93 cabd be74 663d 8c2a e3bd 3378 a6bd
00000090: 200c 18be 5fa2 5abe 586a 0dbe 57f0 c1bd
000000a0: f81a 21be 763f 6a3d e8c2 47be 2fdc 393a
000000b0: 11a7 593d d932 7d3d 77c8 84bc 79e4 1a3d
000000c0: 6d78 313d f564 513d 6e6b a7bb 4612 453d
000000d0: 46a4 583c 3af0 c7bd 00c3 e9bd 746c ac3d
000000e0: 94cf 00be 67ee 363b 840e 923d b860 56be
000000f0: f1d5 a2bd 3074 a3bc 324c b7bd e901 5abe
00000100: dacc bbbd 8935 c53d a88d 08be 413a 833c
00000110: ee05 123d 8c3e b9bd ef79 933d 4185 323d
00000120: b333 57bd f799 073d 619f 90ba 8c13 68be
00000130: 675c 22bc e7c9 2d3d 6897 36be e08b 903d
00000140: df5c 953d 984b 66bd b6e1 00bc 6e0c aabd
00000150: 0d25 abbe d5ff 4abd 6d8d a23d eb26 98be
00000160: f35f 793d b6a4 4b3d 30f0 56bd 7e33 92be
00000170: aef7 2fbe 5379 85be d095 b6be e74b 5fbe
00000180: 7e8d b0be 2806 c4bd 2246 01be d660 f4bc
00000190: 3cc8 7cbd 3040 c0be 9d74 0ebe 3c73 0bbe
000001a0: aba2 e2be fa23 febd e3f3 41be 1d48 5ebe
000001b0: 97e8 67be 0a3c 32be 3363 85bb 02f5 9dbe
000001c0: c461 eabd 852f fb3d 72e3 b7be 1fc6 7abd
000001d0: fea2 d33d 754b 82bc 8abe 6fbd 4e3d 203d
000001e0: cfbf 36be 5ece 6bbd be0c 863d 5f20 22be
000001f0: d503 ee3d 2f19 203e f83d 8b3d c242 283e
00000200: f96b 513e 7429 833d 7545 8c3d 4013 15bd
00000210: 289a 173e 998f cc3d c425 ec3c 8944 b2bd
00000220: 441e 593d 2122 2cbc df95 a43c 959f 8c3c
00000230: d714 b53b f064 243c 2c6f ca3c f1b2 053c
00000240: 162a 12be 6dc9 82be 9c7e e7be e3a2 ab3d
00000250: 8d86 a9bc cb51 d9be 7eb1 81bd 0a4d eebd
00000260: 8792 623d 37e5 29bd ca94 b6be 62bd 22bf
00000270: 13a3 c0bd ef31 d2be 687c cabe 7a76 7f3b
00000280: 0987 5bbd 3a6a 07be 0cbc 29be accf d73d
00000290: fc75 0a3e 9936 923c a8b4 dfba e72b 9b3d
000002a0: 8a25 c8bd df9d e2bd 035c a6bc d43a febc
000002b0: 5364 9a3d 16f6 82bd c4f3 a5bd 4c21 db3c
000002c0: 86b7 a73b f1d7 7c3c 0de5 a73c a4ec dd3d
000002d0: 6187 c63c 6d5e aa3c 63b9 b13d b319 3ebd
000002e0: 7810 80bd 59c8 333e c76b fe3b 0958 2a3a
000002f0: 1ccb e53d 7748 a23c 4f84 913b fe25 1f3e
00000300: 5818 cdbd 511b 16bd 5d50 283c 6565 d2bc
00000310: 7548 91bd afb6 cbbd 3e85 c2bd 5390 0ebe
00000320: b2d9 a6be b822 3bbe 3c3b c93c 468e ddbc
00000330: 507b 66bd 131d ad3d 37fb 2cbd 9f8a 24be
00000340: a20f 9cbd 90b5 bfbc 881b ecbd 56e3 3d3d
00000350: 9cd0 5cbd d20f 59be 36e2 69bc 57ab 59be
00000360: 6618 9e3d b7e8 093d 3308 c53c 0b07 17bd
00000370: 6fee b43c 9beb 0ebd afb3 aabd 5528 3a3d
00000380: 6826 d83d 03dc 01bc 29dd ff3c 51ec 643e
00000390: 9ce8 02be e309 6bbd d8b8 0f3e ac81 d2bd
000003a0: 0ce0 1cbe 2993 453d 5afc 8dbd 9609 c33d
000003b0: 4ac1 85bd 8058 b9bd 601b eabd 9d72 033e
000003c0: ce81 3d3d 196f 88bd 45d2 703d 1813 523e
000003d0: 6552 1d3d a38b abbd 1b0e c4bc e174 2a3d
000003e0: d3e4 b33d 1fe4 6b3c 75a8 d6bd 5431 c03d
000003f0: 5716 edbc e989 b6be 2eb3 d4be 47d4 12be
-0.19840555 -0.062605985 -0.23413599 -0.20078778 -0.08148275 -0.21868846 -0.24077806 -0.11112783
-0.08734094 -0.06338803 0.060339093 -0.15311001 -0.08006359 -0.19793382 -0.33581144 -0.109881945
-0.23761322 -0.010383964 0.08264586 -0.060765855 0.036085255 -0.003923398 0.09365233 -0.073406
0.06604987 0.05687354 -0.16144381 0.07569771 0.079492494 0.03596443 0.093054116 -0.037275907
-0.098914355 0.056263678 -0.110920995 -0.08128395 -0.14848375 -0.21351002 -0.13810098 -0.09469669
-0.15732944 0.057189427 -0.19507945 0.000709 0.053137843 0.06181607 -0.01620887 0.037815545
0.043327738 0.05112167 -0.005109242 0.04811313 0.01322276 -0.097626165 -0.114141464 0.08419123
-0.12579185 0.0027913095 0.07131675 -0.20935333 -0.07950962 -0.019952863 -0.0895008 -0.21289791
-0.09169932 0.09629352 -0.13335288 0.016018989 0.035650186 -0.09045133 0.07200991 0.043584112
-0.05253954 0.033105817 -0.0011033827 -0.22663707 -0.009909726 0.042428877 -0.17831194 0.07057929
0.072931044 -0.056224436 -0.007866314 -0.08303152 -0.33426705 -0.049560387 0.07937131 -0.29717192
0.06088252 0.049717627 -0.052475154 -0.2855491 -0.17184326 -0.26069126 -0.35661173 -0.21806298
-0.3448295 -0.09571487 -0.1262441 -0.029831331 -0.061714396 -0.3754897 -0.13911672 -0.13618177
-0.4426473 -0.12409206 -0.18940692 -0.21707197 -0.2264732 -0.17405716 -0.0040706634 -0.3085099
-0.114444286 0.12264923 -0.35915715 -0.0612241 0.10333823 -0.015905121 -0.05853132 0.039120965
-0.17846607 -0.057569854 0.06545399 -0.15832661 0.11621825 0.15634607 0.06798929 0.16431716
0.20451345 0.06404391 0.068491854 -0.03639531 0.148049 0.099883266 0.028826602 -0.08704478
0.05300738 -0.010506184 0.020090995 0.017165938 0.005526166 0.010033831 0.024711214 0.008160339
-0.14273867 -0.255443 -0.45213783 0.083806776 -0.020694042 -0.42445216 -0.06332682 -0.11635788
0.05531552 -0.041478362 -0.35660392 -0.63570225 -0.09406104 -0.4105372 -0.3954804 0.003898053
-0.053595576 -0.13224116 -0.1657564 0.10537657 0.1352157 0.0178483 -0.001706739 0.07576733
-0.09772785 -0.11065268 -0.020307546 -0.03103391 0.075386666 -0.063945934 -0.08103135 0.026749276
0.0051183132 0.015432344 0.020494962 0.10836151 0.024234476 0.020796979 0.08677938 -0.046411227
-0.06253141 0.17556895 0.007764313 0.00064981036 0.11220381 0.019809945 0.0044408212 0.15541837
-0.10014409 -0.036647145 0.010273066 -0.025683114 -0.07093898 -0.099469535 -0.0949807 -0.13922243
-0.32587963 -0.18274963 0.024564378 -0.02704538 -0.056269944 0.08452811 -0.042231765 -0.16068505
-0.07620169 -0.023402005 -0.11528689 0.046359383 -0.053909883 -0.21197441 -0.014275124 -0.21256767
0.077194974 0.0336692 0.024051761 -0.03687195 0.02208635 -0.03489266 -0.08335053 0.04544862
0.105542004 -0.00792599 0.031233387 0.22355773 -0.12784046 -0.057382476 0.14035356 -0.10278639
-0.15319842 0.048236046 -0.06932898 0.09523313 -0.065310076 -0.09050083 -0.114310026 0.1283669
0.04626637 -0.06661815 0.05879428 0.20515096 0.038408656 -0.08376243 -0.023932507 0.04161537
0.08783879 0.01439765 -0.104813494 0.093844086 -0.028941317 -0.35652092 -0.41542953 -0.1433879

conv2.bias f4 [32]
00000000: 1892 363d cbaa d53c 5323 33bd 84c8 debd
00000010: 5cf1 a53d 968d 4c3c c85b e53c 8b46 e1bd
00000020: 9780 163d 120d cc3c 01d8 813b 7604 ccbb
00000030: e7b8 c33d beb0 9cbc 47a8 363d b84e 10be
00000040: facf f7bb 0346 223d becb ae3d c7b2 a1bd
00000050: 4e11 e53c c1db ee3b b89c febc eb23 a93a
00000060: 73d2 b9bc 1598 b73c ebdc 2d3d e544 babb
00000070: 4406 4cbd 7719 d03c cb51 103d e69c 01be
0.04457292 0.026082417 -0.04373486 -0.10878089 0.08102676 0.012484929 0.027997866 -0.10999783
0.036743727 0.024908576 0.0039625173 -0.0062261177 0.09556752 -0.019127246 0.044594076 -0.14092529
-0.0075626345 0.03961755 0.085349545 -0.07895427 0.027962353 0.0072893803 -0.031080589 0.0012904381
-0.022683358 0.022411386 0.042447012 -0.0056844824 -0.049810663 0.025402768 0.035234254 -0.12657508

conv3.weight f4 [64, 32, 3, 3]
00000000: 4315 86bd 04b9 39bd 3149 243c 9fc5 81bd
00000010: f7bf a5bd 5c4a 0e3d 8c45 bf3d 18ed eabb
00000020: 9d5e b93d 2df1 d33d 0c66 d1bc deaa a33c
00000030: 166e cfbd e07b 31be c037 b33d e3ea 623c
00000040: 7b68 0dbe f1f7 4bbd 268b 923d 4545 8bbd
00000050: 52e5 c4bd a6a5 8e3d d12e 913c 6a87 16bc
00000060: e12a 9f3c eab4 d93d e93c 2b3d 6f4d c23c
00000070: 2b17 753d f508 c8bc 631f a1bc becb 863d
00000080: 47a2 fcbd 8175 c8ba d4d4 f93c 5ed4 a1bd
00000090: e35f 4bbe 88d8 97bd 343f c83c 6447 123e
000000a0: a91f ec3c 545f 0abd a975 583d ee7e 253e
000000b0: 36ba 7abd 160c 53bd f765 8bbd 504f c3bd
000000c0: 4d10 82bd 89b9 a1bd a58f 96bd be74 223d
000000d0: 7b55 063d adc7 0fbd 581a 8cbd b2ad fcbb
000000e0: 9bee 7cbd a686 b13d 81b4 4dbc cc89 053b
000000f0: 86fe fe3d 91b9 933d 9420 5bbd 5dee c8bd
00000100: 1f20 59bc 1df3 eabd b1da 01be 57cd 723d
00000110: 085b f8bc d739 aa3c 4a95 93bc 32c3 f9bd
00000120: 6e21 393e 86d5 083e c0b9 d43c e455 a6bd
00000130: 0c59 90bc 6c64 43bd 5f4b 283d c0dd 093d
00000140: 8e1f eabd 7ad0 80be be90 a3bd a3b5 3bbe
00000150: 4e1f d03d e217 cc3d 8c90 da3c 54f7 48bd
00000160: fc22 96bc 5c98 c4bd 733f 15bd 3c3a 3bbd
00000170: c780 babd bbb9 b03d 9e0b 7cbd 9f49 2c3d
00000180: 98a9 70ba 05ab 4fbd df0f 9bbb b0be b4bc
00000190: 4faf 373e c31c b13d 72ba abbc 16ea 8abd
000001a0: db9e abbd 3855 8bbd e302 b3bd d2ae f1bd
000001b0: 9476 b53d 3e6a b6bc 47a1 0dbe 8529 46bd
000001c0: 1774 15be cbe8 7abd b24d ba3d 43db edbc
000001d0: 905a 73bd 15e7 253b ab9d 613e 5c31 893d
000001e0: f340 263e 5315 9dbd 450b 5c3c 43d6 de3d
000001f0: ea8c f83c 6eba 9cbc 2bac 853d 14a0 153e
00000200: 6bcc ec3d c09f 083e e556 a13c a9d9 44bd
00000210: 71fb f6bc 5a0e 953d ae90 9f3d 5346 97bc
00000220: 199c 4e3d ed9f 963b 2813 15bc 6efe 0bbd
00000230: 134e 42bd caf4 52be 0e34 07bd 89c9 c4bd
00000240: b58e ad3d 4107 f03d 81c1 4c3d 5307 2ebe
00000250: 8d9a 22be 11d8 b7bd 2e7c 243e 53d6 a23b
00000260: dc4b 2bbb 7e2c 57be 1bb7 8ebd f782 ca3b
00000270: c9c0 c53b a7c5 c3bd 8edd 3a3e 1355 2ebc
00000280: 7fc5 afbd cf98 6ebd b615 f5bb d6f3 08be
00000290: 0b07 093b 0449 0d3c 814b 8abe 9a10 10bc
000002a0: 4c37 4f3e 5dfb 0c3d 789b b1bc b46f 8bbd
000002b0: 3821 9c3d de42 0a3d c478 1abd ef6b 02bd
000002c0: 8f81 cdbd d018 a83c e02b 8a3c 1aaa b0bc
000002d0: 008c 303d 1e75 01bc 65d8 1bbe bc5f 903d
000002e0: 6c55 403e 5fa6 a03d 67c0 9a3d a2b2 c03c
000002f0: 9381 d7bd 1c7f 1dbe 6803 7fbc a869 08be
00000300: 1429 953d cb56 e43d c3c2 47bd af11 fbbc
00000310: 509f 26be 439c 9bbd 934b 183d d80c d33b
00000320: ba2f 113c 09e0 5bbd e620 f03c c6d9 e93c
00000330: 6287 bfbc f8ea 3f3b c906 08bd 9ff1 3c3c
00000340: c4bf 143e 85fd 333e 1eb4 133b 9e7f ab3c
00000350: c48f cfbd 1715 13bd 56f4 753d 03f2 0ebe
00000360: 0aca 04bc 3936 b53d 452a edbc d303 323d
00000370: c717 cb3d f955 6e3d 6cde 29bd a2ea 29bc
00000380: 9bef 09bd a36e 45bd d58b f9bc b4bd c1bc
00000390: 77e1 bebc 1d72 573d 73b2 adbd 8e3b c83c
000003a0: c285 c7bc c99a b0bd 1745 0dbe bb46 adbd
000003b0: a0ca 6e3d 765b 39bd b281 89bd 6358 353e
000003c0: 2a51 34bc 2f91 4d3d 03b0 923d e1bf 103d
000003d0: 46fc 193e 95bc 8a3d e663 06bd c92f 3b3d
000003e0: 7445 1abd 13d9 8a3d 048d 503d d8f1 e0bd
000003f0: de56 cebc 1ba3 823c eda3 5b3d 7d41 ea3c
-0.06547024 -0.04534246 0.010027216 -0.06336521 -0.08093255 0.034738883 0.09339437 -0.007169377
0.09051249 0.10348735 -0.025561355 0.019978937 -0.10128419 -0.17332411 0.08750868 0.013849947
-0.13809387 -0.049797002 0.07155447 -0.068003215 -0.09614052 0.06965189 0.01772252 -0.009187559
0.019429626 0.1063021 0.041806135 0.023718564 0.059836548 -0.024418334 -0.019668287 0.065818295
-0.123356394 -0.0015293808 0.030496992 -0.07901834 -0.19860797 -0.07414347 0.0244442 0.14285046
0.02882369 -0.03378232 0.052846584 0.16161701 -0.06121274 -0.051525198 -0.068065576 -0.09536612
-0.063507654 -0.07896716 -0.07351617 0.039662115 0.032796364 -0.035102535 -0.06840962 -0.007711136
-0.06175099 0.0866826 -0.0125552425 0.0020376323 0.1245089 0.07213128 -0.053497866 -0.09811089
-0.013252287 -0.114721514 -0.1268108 0.05927786 -0.030316845 0.020779533 -0.018015523 -0.12195434
0.18079159 0.13362703 0.025967479 -0.08121851 -0.017620586 -0.04770319 0.041087504 0.033658743
-0.114318 -0.25159055 -0.07986592 -0.18331008 0.10162221 0.09965493 0.026680253 -0.049063995
-0.018327229 -0.09599373 -0.036437463 -0.045709834 -0.091065936 0.08629175 -0.061534517 0.042062398
-0.0009180545 -0.050700206 -0.0047321166 -0.022063583 0.17937969 0.08648064 -0.020962927 -0.067829296
-0.08379909 -0.068033636 -0.08740785 -0.118009225 0.088605076 -0.022267457 -0.13831054 -0.04837944
-0.14595066 -0.061257165 0.090968505 -0.029035216 -0.05941254 0.0025314738 0.22032802 0.06698868
0.16235714 -0.07670083 0.013430421 0.10880711 0.03034063 -0.019131865 0.06526979 0.14611846
0.11562427 0.1334219 0.019694755 -0.04805914 -0.030149193 0.07278128 0.07791267 -0.01846615
0.050441835 0.0045967014 -0.0090988055 -0.03417819 -0.04743774 -0.20601192 -0.033008628 -0.09608752
0.08474485 0.117201336 0.049989227 -0.16994981 -0.15879269 -0.08976758 0.16062996 0.004969397
-0.0026137745 -0.21013066 -0.06968518 0.006180163 0.0060349447 -0.095591836 0.18248579 -0.0106404
-0.08582591 -0.0582512 -0.007479395 -0.13374266 0.002090874 0.008623365 -0.2701073 -0.008793021
0.20235938 0.034419406 -0.021680579 -0.06808415 0.076235235 0.033755176 -0.037712827 -0.031841215
-0.10034477 0.020519644 0.016866624 -0.021565486 0.043102264 -0.007901458 -0.15219267 0.0704951
0.18782586 0.07844233 0.07556229 0.023522679 -0.10522761 -0.1538052 -0.015564777 -0.13321555
0.07283226 0.11149367 -0.048769724 -0.03064808 -0.1627171 -0.07598164 0.03718145 0.00644074
0.008861477 -0.053680453 0.029312562 0.028546225 -0.023379985 0.002928434 -0.033209596 0.011532216
0.14526278 0.17577179 0.0022537778 0.020934876 -0.10134843 -0.035908785 0.06004747 -0.13959508
-0.0081048105 0.08848233 -0.02895082 0.04346068 0.099166445 0.05818746 -0.041471884 -0.010370882
-0.03367577 -0.048201215 -0.030462185 -0.023650028 -0.02330087 0.05259906 -0.08481302 0.02444246
-0.024355773 -0.08623273 -0.13795887 -0.084607564 0.058298707 -0.04525324 -0.067141905 0.17709498
-0.011005679 0.050187286 0.07162478 0.03533924 0.15037641 0.067742504 -0.032810114 0.04569987
-0.037663892 0.06779685 0.050915733 -0.10983628 -0.025187906 0.015946915 0.05362313 0.02859568

conv3.bias f4 [64]
00000000: aa9d d0bd 7c24 10bc 905e 89bd df02 8dbd
00000010: b4d9 a8bd ff2a e6bc d37e 5abd 6f1a 8e3c
00000020: 8dbd 26bd 4a42 80bc 1359 ea3c f11d b6bd
00000030: 44d8 99bd c0f8 b1bd bd83 76bd bb54 6a39
00000040: 8dde d7bc f694 6cbd ded3 a5bc 4858 f8bc
00000050: 15e2 e4bd 6863 62bd 7140 d9bd 916c 60bd
00000060: 1484 e0bd 87ca fcbd 7089 bfbc 33ed 92bd
00000070: 37ef 9fbd 2684 8bbd f000 b9bd 5d79 e93c
00000080: 2e70 c2bd b2b3 98bd cb46 9cbd 0fc1 2dbd
00000090: 568a e0bd 0790 b4bd 1015 953b 79ae a1bd
000000a0: 5693 22be c064 07be 4ee2 00be 13ae 0abc
000000b0: cd21 90bc 251a 13be 58ca c0bd 25aa 26bd
000000c0: d7e6 3ebd 1bf3 99bd 2c08 4ebd 480e 11bd
000000d0: b08b d6bc 5e68 74bd 59af cc3b daf7 5ab9
000000e0: 89ae 0dbe 21bb a0bd 8847 eabd 0103 0fbd
000000f0: cd24 0abd 0c61 81bd 30f9 45bd e86e 853b
-0.10186322 -0.008797761 -0.067074895 -0.06885313 -0.082446486 -0.028096674 -0.053343605 0.017346589
-0.040708113 -0.01565661 0.028606927 -0.088924296 -0.075119525 -0.086900234 -0.06018423 0.00022347544
-0.026351238 -0.057759248 -0.020242628 -0.030315533 -0.11175934 -0.055270582 -0.10607994 -0.054791037
-0.10962692 -0.123433165 -0.023380965 -0.071741484 -0.078092985 -0.06812315 -0.09033382 0.028500253
-0.09494053 -0.07456149 -0.0763069 -0.042420443 -0.109638855 -0.088165335 0.00454963 -0.07894606
-0.15876517 -0.13222027 -0.12586328 -0.008464354 -0.017594242 -0.14365442 -0.09413594 -0.040689606
-0.046606865 -0.07517072 -0.050300762 -0.03541401 -0.026189655 -0.059669845 0.006246489 -0.00020882432
-0.13836111 -0.07848192 -0.11439425 -0.034914974 -0.033726502 -0.06317338 -0.048333347 0.004072059

fc1.weight f4 [10, 576]
00000000: 6fe8 10be 7609 cebd e649 043d daeb 1d3e
00000010: d489 41bd db6d cfbd 3b47 273d 33f0 243e
00000020: 136e b9bd 0d9f 603d 5fba 60bc 5ccd e3bb
00000030: 475c a23c dfaf c03d e39d b5bd 1f75 aabd
00000040: efe5 84bd 4a25 60bc e067 62bd b478 993d
00000050: 0a0e 473d 38d4 433d 88a0 b53b 5114 93bc
00000060: 443f 263e 13a4 aa3b 6c55 b7bd fd11 82bd
00000070: 8ba4 8bbd bf37 9c3c 8d6f 773b bef7 a33c
00000080: c559 d7bd 0bda f5bc c415 4f3d 0b0e 843d
00000090: 8f87 c03c ced2 1fbd ff1d 64bc 3740 59bb
000000a0: b271 28bd 49de bdbc b8de babd 8e10 a3bd
000000b0: 38c9 e6bd 97d0 083e ed17 01bd 38a7 0f3c
000000c0: d252 773d 7b2f cdbb 7c6e 0d3d 93da 533e
000000d0: 63c3 16bd 3793 5cbc eac1 16be e772 70bd
000000e0: adc3 18bd 82d4 a8bd a0bb 82bd 372f b93d
000000f0: 24cd 19be a439 3abe e9d1 27be b487 b6bd
00000100: 5342 563d 8af2 e4bc 00fd 2ebd 6010 b0bc
00000110: 713d 783d 3fc7 523d 4f99 423c b2c8 0cbd
00000120: ee54 2cbd d069 403c a5f7 683d bc34 963c
00000130: ce58 a2bd 7b5e 04bd 8473 41bd 00c6 eb3d
00000140: 6463 433d b1cb e33b 97c4 b9bd 7e2c df3c
00000150: b027 debb 80c5 a7bc bc84 8ebd 61ff 223d
00000160: 1766 5bbd b97d 6abd ee78 743d 4fd6 0d3e
00000170: c7c6 70bc be01 64b9 2bbf 57be 03ff 62bd
00000180: 5cde d53d 9fcd 99bb 9b66 863c 59c1 a33c
00000190: 2a7c 343d 2bb8 f0bd 365f 863d f354 8cbc
000001a0: 1e72 d63d a0e7 e1bd 1a0e debc e60e 20be
000001b0: c0fa 4abd d9c1 cd3b 1072 673d 003e c03c
000001c0: b789 9b3d 12e6 be3c 7d78 663e c785 24be
000001d0: 24bd 04be 3f24 533d bfb8 04be 09b3 1e3d
000001e0: 4ac0 b83d ad86 62bc 4bae 123d 440d 3fb8
000001f0: b398 8c3e 4fbe bdbc 0c47 f83c 18db 06bd
00000200: 2f61 08bd 1fa2 22bd 66e3 75bd 7672 243e
00000210: 29b0 3b3d 26ba 74bd 002e 49bd 574d e5bd
00000220: 2744 0d3b 6d36 66be ade7 203d 075b 453d
00000230: 5bd4 47bd ff79 bdbd 434f aebc f028 9e3d
00000240: fec6 e3bc b3b5 c83a a782 7f3d 420e 013e
00000250: f087 55bd 83b0 e6bd 13b1 003e 17fb 3c3d
00000260: ab5c 89bd 5449 e6bd bb78 9d3b 8bf4 c9bd
00000270: 7db3 a5ba d906 11bd fc74 423d a973 383d
00000280: e00a 95bd 1e8f 153e 980f 27be 3f73 333b
00000290: a4e4 a7bd 799d 38bd 07d9 843c c960 f3bc
000002a0: c8b8 67bd 93d8 efbd bdfa 0c3c fe2e 5f3c
000002b0: 8207 9e3a 15db 0ebd 40ed af3c 6cdc 3ebd
000002c0: 1dc9 a73d 9a47 b93d 03f5 a7bd 8448 183e
000002d0: be75 92bb 1f99 9ebc ea61 5a3d 24c7 633d
000002e0: 3180 27bd 8b6c 5abd 8724 be3d 5421 98bd
000002f0: 0caf 50bd 3d55 edbd 871e f1bd 32ca 2dbc
00000300: 477f b8bd 9564 9b3c 300f fdbc e5ec 263c
00000310: c6a1 393d 6d0b 34bd f7b6 803c ff02 38bd
00000320: adbe 1c3c 6c99 c03d c7a3 563d 163c 0d3d
00000330: 09e5 76bc 63f3 68bc 679b 3e3d 73d9 a03c
00000340: 56c5 1f3d cb1d 08be 6391 d7bc 48ec d8bd
00000350: 1ad1 0dbd be49 74bb 906c cbbc f40f 483d
00000360: f970 273c 53af 963c 3bc9 9b3d 5d44 5a3d
00000370: e488 8abc e824 7cbb 82ca fd3b 972a 8dbc
00000380: 0e5a 09be 3434 513d a310 b33d bc10 d2bd
00000390: e59d b4bd fe7a 52bc 16bc c53d 2680 8abc
000003a0: c204 37bd 2dd7 2cbd 155c 9e3b 5acd 7ebd
000003b0: 1f96 71bb 0d0b 25bc 3193 863c 6aa9 33bd
000003c0: a3f3 07bd 6813 f9bd 5da3 263e d681 a43d
000003d0: 644e 9f3d 6faf 91bc 749c dfbc 7397 333e
000003e0: 2b33 693d 374c dcbc 3a09 d0bd cffd 0abe
000003f0: 1f70 f13d 7e62 e3bc cc10 a8bd 1f75 08bc
-0.14151166 -0.10060398 0.032297038 0.15422001 -0.047250584 -0.10128375 0.040839415 0.16107254
-0.09054198 0.054839183 -0.013716309 -0.006951971 0.019819392 0.09408545 -0.08868005 -0.0832312
-0.06489169 -0.013680765 -0.055274844 0.074937254 0.048597373 0.04780981 0.0055428185 -0.017954024
0.16235071 0.0052075475 -0.0895184 -0.06351087 -0.068184935 0.01906955 0.0037755698 0.020015594
-0.10515169 -0.030011198 0.050557867 0.06447991 0.02350214 -0.0390194 -0.013923167 -0.0033149847
-0.041124053 -0.023177283 -0.091245115 -0.07962142 -0.11268848 0.1336082 -0.031516958 0.008767895
0.060381718 -0.0062617636 0.034529194 0.20688848 -0.03680743 -0.013462833 -0.1472241 -0.05870333
-0.037295986 -0.08243658 -0.06383443 0.09042209 -0.15019661 -0.1818605 -0.16388668 -0.08912602
0.052309345 -0.027947683 -0.04272175 -0.021492183 0.06060547 0.051459547 0.011877372 -0.034371085
-0.042073183 0.011743978 0.056876797 0.018335693 -0.079270944 -0.032316666 -0.047229305 0.11512375
0.04770221 0.006951772 -0.090707 0.027242895 -0.0067796335 -0.020479918 -0.06958911 0.03979433
-0.053564157 -0.057248805 0.05968564 0.13851283 -0.01469583 -0.00021744423 -0.21069019 -0.05541898
0.10442802 -0.0046937014 0.016406348 0.019989656 0.044063725 -0.11753877 0.06561129 -0.01713035
0.10470985 -0.11030507 -0.027106334 -0.15630683 -0.04955554 0.006279212 0.056505263 0.023467064
0.075946264 0.023303065 0.225069 -0.16066657 -0.12962776 0.05154824 -0.129611 0.03874496
0.09021051 -0.0138260545 0.03581075 -4.5550303e-05 0.2746025 -0.023162035 0.030307315 -0.032923788
-0.033295806 -0.039705392 -0.060031317 0.16059288 0.045822296 -0.059747837 -0.049116135 -0.11196392
0.0021555515 -0.224817 0.039283443 0.048182514 -0.048786502 -0.092517845 -0.02127803 0.07722652
-0.027804848 0.001531294 0.06238046 0.12603095 -0.052131593 -0.11264136 0.12567548 0.046137895
-0.06707128 -0.11244455 0.004805652 -0.09861096 -0.0012641993 -0.03540692 0.047474846 0.045032177
-0.07277465 0.14605376 -0.16314542 0.0027381924 -0.081979066 -0.045072053 0.016216768 -0.029709237
-0.056572706 -0.1171123 0.008604703 0.013622044 0.0012056681 -0.0348769 0.021475434 -0.04659693
0.08192656 0.0904686 -0.08201029 0.14871413 -0.0044696024 -0.019360123 0.053316034 0.055609837
-0.040893737 -0.05332617 0.09284311 -0.07428232 -0.050948188 -0.115885235 -0.11773401 -0.010607289
-0.09008651 0.01896886 -0.030891031 0.010188316 0.045320295 -0.04395621 0.015712244 -0.044924732
0.009566945 0.09404263 0.052402284 0.03448113 -0.015069255 -0.014218184 0.046534922 0.019634938
0.039006554 -0.13292615 -0.026314443 -0.10591942 -0.034623243 -0.00372754 -0.02483204 0.04884334
0.010219806 0.018394148 0.07606741 0.053287853 -0.016910978 -0.0038474146 0.007745088 -0.017232222
-0.1341326 0.051075175 0.087434076 -0.10257098 -0.088191785 -0.012846706 0.09655015 -0.016906809
-0.04468227 -0.042197395 0.0048327544 -0.062207557 -0.003686316 -0.0100734355 0.016427608 -0.043862738
-0.033191334 -0.121619046 0.16273256 0.08032577 0.07778624 -0.017783849 -0.027296282 0.17538242
0.056933563 -0.02689181 -0.1015801 -0.13573383 0.117889635 -0.027756926 -0.08206329 -0.008328705

fc1.bias f4 [10]
00000000: 0233 9fbb 81a4 053e 8049 4abd 4c0f 27bc
00000010: cf0b 81bd a9c6 8cbd b03f 23bd 272b d23c
00000020: 77e5 13bc ae20 a93c
-0.0048583755 0.13051035 -0.0493865 -0.010196518 -0.063010804 -0.06873829 -0.03985566 0.025655342
-0.009026877 0.020645466
